model/model.pth (torch, 16799 bytes, 4 tensors)

linear1.weight f4 [256, 11]
0	0xbe839079	-0.2569616
1	0x3d52400f	0.051330622
2	0xbea0c2d6	-0.31398648
3	0x3ee96eb3	0.4559227
4	0x3e9acec3	0.30235872
5	0xbe9e9004	-0.3096925
6	0xbd8a2143	-0.067446254
7	0xbec70e07	-0.3887789
8	0xbe9abc84	-0.3022195
9	0x3eaee880	0.34161758
10	0x3e041571	0.12898804
11	0x3e5fea91	0.21866824
12	0xbf01c2ca	-0.5068785
13	0x3f092ad4	0.53580976
14	0x3d2eaf62	0.042647727
15	0xbd5f01be	-0.05444502
16	0x3e3f0377	0.18653665
17	0x3e152e85	0.14568527
18	0xbe4b1c33	-0.19834976
19	0xbe377e92	-0.17919376
20	0xbc6f8d7b	-0.014621134
21	0x3d5f76f9	0.05455682
22	0xbea251e1	-0.31703094
23	0x3dde907f	0.10867404
24	0x3edbb44b	0.4291099
25	0xbca6205f	-0.020279108
26	0x3d0c1f96	0.03420981
27	0x3daf10a2	0.08548094
28	0xbd351ad6	-0.044215046
29	0x3e3b301d	0.18280073
30	0x3e297588	0.16548741
31	0xbc645446	-0.013936108
32	0x3d91f66c	0.07127079
33	0xbe775d57	-0.241567
34	0x3ee1eb29	0.44124725
35	0xbed63590	-0.4183774
36	0xbe17c9be	-0.14823052
37	0x3eeb790c	0.4599079
38	0xbac4cddb	-0.0015014963
39	0x3e7731a1	0.24140026
40	0x3d376e17	0.044782724
41	0xbe7d5657	-0.24739967
42	0x3e81c1e4	0.2534324
43	0xbea3e4d1	-0.3201051
44	0x3c483801	0.012220384
45	0x3e89c5f5	0.26908842
46	0x3efaa688	0.48955178
47	0x3e038032	0.12841871
48	0x3e017c49	0.12645067
49	0x3de6adef	0.11263644
50	0xbd88ca58	-0.06679219
51	0x3e1a6caa	0.15080515
52	0xbda0de38	-0.07854885
53	0x3e1dbb37	0.15403448
54	0xbdca04c6	-0.09864192
55	0xbf2858cc	-0.65760493
56	0x3e5d7924	0.21628243
57	0x3dbf8d6c	0.09353146
58	0x3ce046af	0.027377455
59	0x3e97107a	0.29504758
60	0xbeddc226	-0.43312186
61	0x3e337848	0.17526352
62	0x3e0355a9	0.12825646
63	0xbdae4856	-0.08509891
64	0xbf032fca	-0.51244795
65	0x3e8bb7fc	0.27288806
66	0x3e295ac7	0.16538535
67	0xbdb507e5	-0.088393964
68	0xbe6b4cec	-0.22978562
69	0xbb98ca45	-0.0046627843
70	0x3e81976e	0.25310844
71	0xbe61534f	-0.22004436
72	0x3eba2051	0.3635278
73	0xbcc06671	-0.023486348
74	0xbeaf7f3f	-0.3427677
75	0x3e5623f4	0.20912153
76	0xbedb0e72	-0.42784458
77	0x3e576f77	0.21038614
78	0x3e023f0f	0.12719367
79	0x3e2b136e	0.1670663
80	0x3e332cc7	0.1749755
81	0xbe613d1a	-0.21995965
82	0x3d67ce2a	0.056593098
83	0x3e061ad3	0.1309617
84	0xbe4e25a4	-0.20131546
85	0x3e268551	0.16261794
86	0x3d8c39a4	0.068469316
87	0x3db2172f	0.08695828
88	0x3d60208b	0.054718535
89	0xbdb1f85f	-0.08689951
90	0xbee2f019	-0.44323805
91	0xbe9c658e	-0.3054623
92	0x3d7d8c9e	0.06190168
93	0xbe4e36e4	-0.20138127
94	0xbed0bfd0	-0.4077134
95	0x3eaf6d10	0.34262896
96	0x3d4e3339	0.05034182
97	0x3e8b3418	0.27188182
98	0x3ed1388c	0.40863454
99	0x3ee34ffb	0.44396958
100	0xbeb738f6	-0.35785645
101	0x3c03562a	0.008016149
102	0x3e815a56	0.25264233
103	0x3e9211d7	0.28529236
104	0xbcc10755	-0.023563066
105	0xbe9a00b7	-0.3007867
106	0xbc19f5e3	-0.009397003
107	0xbda25028	-0.07925445
108	0x3eb45f06	0.35228747
109	0x3f00d90b	0.5033118
110	0xbe23cc24	-0.15995842
111	0x3f1fe1c9	0.62453896
112	0xbeab5d1b	-0.3346947
113	0x3e2535d3	0.16133814
114	0x3c43407e	0.011917232
115	0x3e757fee	0.23974583
116	0xbd20679b	-0.039161306
117	0xbc3e28be	-0.011606393
118	0xbe4d195f	-0.2002921
119	0xbd662a6e	-0.056192808
120	0xbc236228	-0.009972133
121	0xbe57e7c7	-0.2108451
122	0x3e971e10	0.29515123
123	0x3ece29d7	0.40266296
124	0xbe96fd68	-0.2949021
125	0xbe1c90b3	-0.15289573
126	0xbe53920d	-0.20661183
127	0xbd317e5d	-0.0433334
128	0x3defd1f7	0.117099695
129	0xbe3a100a	-0.18170181
130	0x3e04f16f	0.12982725
131	0x3df21ce6	0.11821918
132	0x3ea65659	0.32487753
133	0x3b3c2b7f	0.002871245
134	0xbe501039	-0.20318688
135	0xbeae7b0a	-0.34078246
136	0xbda44278	-0.080204904
137	0xbeb0674e	-0.34453815
138	0x3df22409	0.118232794
139	0x3eb4fe0c	0.35350072
140	0x3d54e199	0.05197296
141	0x3eaddb90	0.33956575
142	0xbe588af6	-0.2114676
143	0x3de6a424	0.11261776
144	0xbf224d07	-0.63398784
145	0x3eeccc55	0.46249643
146	0x3e83b35a	0.25722772
147	0x3e26344d	0.16230889
148	0x3e76e81f	0.24111985
149	0x3d894655	0.06702868
150	0xbe159e48	-0.14611161
151	0x3cf14dba	0.029456008
152	0x3e0601d7	0.1308664
153	0x3ec582d6	0.38576382
154	0xbed244f3	-0.4106823
155	0x3e02b778	0.127653
156	0xbe00f52d	-0.12593527
157	0xbeb81bc1	-0.35958675
158	0x3e39047f	0.18068121
159	0x3dbda029	0.09259064
160	0xbbdcb281	-0.0067351465
161	0x3df08a7c	0.11745164
162	0xbdafe74e	-0.0858904
163	0x3e72fe55	0.23729832
164	0x3e1a473c	0.15066236
165	0xbe80a117	-0.25122902
166	0xbe0c09f3	-0.1367567
167	0x3ebe1549	0.37125614
168	0x3ddf1747	0.10893112
169	0x3e585739	0.21127023
170	0x3e9bdf25	0.30443683
171	0xbedcd439	-0.43130663
172	0x3c49f41d	0.012326268
173	0x3da487c2	0.08033706
174	0xbe465c65	-0.19371183
175	0xbed7bcbf	-0.4213619
176	0x3defcee3	0.117093824
177	0x3e93bb46	0.28853816
178	0x3edc2013	0.4299322
179	0xbdb86af3	-0.09004774
180	0xbdbf795f	-0.093493216
181	0xbe938443	-0.28811845
182	0xbe447c84	-0.19188124
183	0x3e317b93	0.17332296
184	0x3e60610f	0.21912025
185	0x3e03f77c	0.12887377
186	0x3e1b1ae4	0.15146977
187	0xbeb4ab98	-0.35287166
188	0x3ebdd3e0	0.3707571
189	0xbb9dc511	-0.004814752
190	0xbe531403	-0.20613103
191	0x3e81ccd7	0.25351593
192	0xbe33a240	-0.17542362
193	0xbdb9a170	-0.09063995
194	0xbedcd523	-0.4313136
195	0xbe5dcd48	-0.2166034
196	0x3da42b4c	0.08016071
197	0xbc2503fa	-0.010071749
198	0x3e195e73	0.14977436
199	0x3da4db65	0.08049659
200	0xbe4bb0fd	-0.19891734
201	0xbea0fd75	-0.31443372
202	0x3f0945d0	0.5362215
203	0x3e4e3e19	0.20140876
204	0xbd3ba88a	-0.04581503
205	0xbefb79da	-0.49116403
206	0x3e808ef2	0.2510906
207	0xbf095c0f	-0.53656095
208	0xbe9eb6e1	-0.309989
209	0x3ea7bc0f	0.32760665
210	0xbe981a21	-0.29707435
211	0xbe33c104	-0.17554098
212	0xbe55ba0d	-0.20871754
213	0xbec5e13d	-0.38648406
214	0x3ede34c1	0.43399623
215	0x3ea38a29	0.31941345
216	0x3e5028ed	0.20328112
217	0x3ec17e24	0.3779155
218	0xbecf16dc	-0.40447128
219	0xbebe1373	-0.37124214
220	0xbe0ca4a5	-0.13734682
221	0xbde7e482	-0.11322881
222	0x3ef23f2a	0.47313815
223	0x3de0ce72	0.10976876
224	0xbc24fa04	-0.010069374
225	0x3e9eee6f	0.31041285
226	0xbd8cfd06	-0.06884198
227	0xbe27b3da	-0.16377202
228	0x3e546600	0.20742035
229	0xbe49b155	-0.19696553
230	0xbe251dbd	-0.16124626
231	0xbd0708b8	-0.0329673
232	0x3d988e18	0.07448977
233	0x3d263a93	0.040583204
234	0xbd78f7c7	-0.060783174
235	0xbe8df91c	-0.27729118
236	0xbe92a430	-0.2864089
237	0xbe8444f8	-0.2583387
238	0xbe1cc94b	-0.15311162
239	0xbde14cdc	-0.11000988
240	0x3e78c0c1	0.2429228
241	0x3e1d85a2	0.15383008
242	0xbdfd3a0d	-0.12364588
243	0x3c1155d9	0.008870565
244	0xbd31c409	-0.043399844
245	0xbe89ef75	-0.26940504
246	0x3ea148fd	0.31500998
247	0xbd58a7fc	-0.052894577
248	0xbe928843	-0.28619584
249	0xbe99ad85	-0.30015197
250	0x3b4e19f3	0.0031448572
251	0xbd97ddf8	-0.07415384
252	0xbea5aac3	-0.32356843
253	0xbe4a8889	-0.19778647
254	0xbc635a9b	-0.0138765825
255	0x3e2af2ec	0.1669423

linear1.bias f4 [256]
0	0xbd8d9de3	-0.0691488
1	0x3ed028e0	0.40656185
2	0xbdab9233	-0.08377495
3	0xbe866ebf	-0.26256368
4	0xbe09a515	-0.1344188
5	0x3ed17d33	0.40915832
6	0x3d53d3fe	0.051715843
7	0xbe62e5b3	-0.22157936
8	0xbd7c98d8	-0.0616692
9	0xbe4fa7cf	-0.20278858
10	0x3ebe4f50	0.37169886
11	0x3c99aa41	0.018757941
12	0xbc0bffce	-0.008544875
13	0xbda5880f	-0.08082592
14	0x3d557a5c	0.052118644
15	0x3ea24f03	0.31700906
16	0x3da36848	0.079788744
17	0xbe67fe32	-0.22655562
18	0x39340b4f	0.0001717035
19	0xbc1ca765	-0.009561394
20	0xbe356861	-0.17715599
21	0xbea599d5	-0.32343927
22	0x3c90c9b9	0.017674314
23	0xbd2f9ee9	-0.042876158
24	0x3d2bcafd	0.04194163
25	0x3d524df2	0.051343866
26	0xbd34621e	-0.044038884
27	0xbd98997d	-0.074511506
28	0x3e3f994b	0.1871082
29	0xbe118c78	-0.14213741
30	0xbec8fe5d	-0.39256564
31	0xbe615378	-0.22004497
32	0xbe37964c	-0.17928427
33	0xbdf1ab47	-0.11800247
34	0x3e9b7f57	0.3037059
35	0x3d8a5492	0.06754412
36	0xbe789a59	-0.24277629
37	0x3e0c9c5f	0.13731526
38	0xbe92d983	-0.28681573
39	0xbd81e325	-0.063421525
40	0xbbf409fe	-0.00744748
41	0x3d631453	0.055439305
42	0x3d835c20	0.06414056
43	0xbe09a186	-0.13440523
44	0x3d879aff	0.0662136
45	0xbe4c97cc	-0.19979781
46	0x3e980482	0.2969094
47	0xbdd9dee3	-0.106382154
48	0xbe02393d	-0.12717147
49	0xbde69333	-0.11258545
50	0x3d97e3e3	0.07416513
51	0xbdac5c3f	-0.08416032
52	0xbcf4d6f1	-0.029887648
53	0xbdc3376a	-0.09532054
54	0x3e0df900	0.13864517
55	0x3d9a8e81	0.07546712
56	0x3dfcd861	0.123459585
57	0xbe1b0e1f	-0.15142106
58	0xbe044f27	-0.12920819
59	0xbe153c76	-0.14573845
60	0xba5a4865	-0.00083268277
61	0xbe47f55d	-0.19527192
62	0xbc5c3807	-0.013441092
63	0xbe935dae	-0.2878241
64	0xbe351b34	-0.17686158
65	0x3ec571ba	0.3856333
66	0xbda2a309	-0.07941253
67	0xbde2786e	-0.110581264
68	0xbdefdd06	-0.11712079
69	0x3e955db9	0.29173067
70	0xbea7cb3e	-0.3277225
71	0x3e4859cf	0.1956551
72	0x3d5976fd	0.05309199
73	0xbce5a804	-0.028034218
74	0xbac5e967	-0.0015099467
75	0x3aff9162	0.0019498284
76	0xbe779141	-0.24176504
77	0xbd7a1951	-0.0610593
78	0x3dc18771	0.094496615
79	0x3df55d0a	0.119806364
80	0xbe73bf2d	-0.23803397
81	0xbe032f78	-0.12811077
82	0xbe09fa71	-0.13474442
83	0xbd96868a	-0.0734988
84	0xbdd1101d	-0.102081515
85	0x3de4a89a	0.11164971
86	0xbe334f1d	-0.17510648
87	0x3d87fc59	0.06639928
88	0x3e4a8922	0.19778875
89	0x3dec7602	0.11545946
90	0x3e9ee07f	0.31030652
91	0xbd4b6e9f	-0.049666043
92	0x3e11de02	0.14244846
93	0xbe246a30	-0.16056132
94	0xbdb16210	-0.08661282
95	0x3e548411	0.20753504
96	0xbe336f98	-0.17523038
97	0xbded4f9a	-0.115874484
98	0xbe0d4433	-0.13795547
99	0x3daf9599	0.08573455
100	0xbe84de04	-0.25950634
101	0x3ca91f7b	0.020644894
102	0xbe86f488	-0.26358438
103	0xbe6a5ede	-0.22887751
104	0xbc82c1c7	-0.01596154
105	0xbe6346a0	-0.2219491
106	0x3bf5f525	0.00750603
107	0x3e74f08c	0.23919886
108	0xbdb2c3cc	-0.087287515
109	0xbe121a94	-0.14267951
110	0xbe221e2d	-0.15831824
111	0x3dac1e02	0.08404161
112	0x3cb54591	0.022127898
113	0xbd66f631	-0.05638713
114	0x3e35472d	0.17702933
115	0x3f212aa0	0.62955666
116	0xbc8b55cd	-0.017008686
117	0xbea56260	-0.32301617
118	0xbe369ace	-0.17832491
119	0x3de3369d	0.11094401
120	0xbb7066b8	-0.003668232
121	0x3d2db07c	0.042404637
122	0xbe968049	-0.2939475
123	0xbcc09ba6	-0.023511719
124	0xbe959443	-0.29214677
125	0xbe4dbbf9	-0.20091237
126	0x3dd55aba	0.10417695
127	0xbe03b975	-0.12863715
128	0x3c93a166	0.018021297
129	0xbdb600b2	-0.08886851
130	0xbd169523	-0.03676332
131	0xbdb0c608	-0.086315215
132	0xbecd1c63	-0.4006072
133	0xbd422fcb	-0.04740886
134	0xbed27733	-0.41106567
135	0xbece9c42	-0.4035359
136	0x3e3b0202	0.18262485
137	0xbdb96b11	-0.090536244
138	0x3ccd5bb2	0.025068138
139	0xbd9ae950	-0.07564032
140	0xbde49710	-0.111616254
141	0x3e3a6a2a	0.18204561
142	0xbe216f4c	-0.15765113
143	0x3db0a0ba	0.08624406
144	0x3e023cd5	0.12718518
145	0x3e4440f7	0.19165407
146	0xbe18969f	-0.14901207
147	0xbd848f21	-0.06472612
148	0xbe54bafc	-0.20774454
149	0x3e0ae4e7	0.13563882
150	0x3e8366ea	0.25664455
151	0xbe1c60c6	-0.15271291
152	0xbdf6594c	-0.12028751
153	0xbe8a701e	-0.27038664
154	0xbca96b09	-0.020680921
155	0xbdf297f5	-0.1184539
156	0x3e398e6b	0.18120734
157	0x3e766de7	0.24065362
158	0xbd76afbe	-0.060226195
159	0xbd492c87	-0.04911473
160	0xbe13434e	-0.14381143
161	0x3de2f561	0.110819586
162	0xbd2be4c1	-0.041966204
163	0xbe8228b3	-0.25421676
164	0xbe0ed5bd	-0.13948722
165	0xbe040b8b	-0.12895028
166	0xbe709e7f	-0.23497961
167	0xbd89a4bf	-0.06720876
168	0xbe3564b0	-0.1771419
169	0xbdaf5261	-0.085606344
170	0xbc4fddf8	-0.012687199
171	0xbe8b5ff4	-0.27221644
172	0xbe6b3961	-0.22971107
173	0xbe416619	-0.18886603
174	0xbe45d27c	-0.19318575
175	0xbe1b2769	-0.15151753
176	0xbd088c69	-0.03333703
177	0xbc886441	-0.016649367
178	0xbe964f07	-0.29357168
179	0x3e3c0026	0.18359432
180	0x3ebc378a	0.36761123
181	0x3dca4b6c	0.09877667
182	0x3db90b36	0.090353414
183	0xbe1354e6	-0.14387855
184	0x3ca8472c	0.02054175
185	0xbd98717f	-0.07443523
186	0x3ed1626c	0.40895402
187	0xbe870507	-0.26371023
188	0xbe381261	-0.17975761
189	0xbdaa806a	-0.08325274
190	0xbd61215f	-0.054963466
191	0xbe3bed33	-0.18352203
192	0xbd15946d	-0.036518503
193	0x3c78de0c	0.015189659
194	0x3ea46ac0	0.32112694
195	0xbd2e473a	-0.042548396
196	0xbe87a73f	-0.26494786
197	0x3f045798	0.5169616
198	0xbdcf0b2f	-0.10109555
199	0xbe599391	-0.21247698
200	0x3dc694c5	0.09696344
201	0xbe9126bd	-0.28349867
202	0x3d4b3604	0.04961206
203	0xbe55e52f	-0.20888208
204	0xbe5037e6	-0.20333824
205	0x3da068ca	0.07832487
206	0xbe1fb4ad	-0.15596266
207	0xbe28e349	-0.16492952
208	0xbe98707a	-0.29773313
209	0x3e036e47	0.12835036
210	0x3d51cd74	0.051221326
211	0x3ec8f3c6	0.39248484
212	0x3d411aac	0.047144577
213	0x3c2cceff	0.010547399
214	0xbe34a980	-0.17642784
215	0xbd927a1c	-0.07152197
216	0xbe464a48	-0.19364274
217	0xbe66cb4e	-0.22538492
218	0xbe539a40	-0.2066431
219	0x3d8a3960	0.06749225
220	0x3e06f02d	0.13177557
221	0xbe5029aa	-0.20328394
222	0xbe335b73	-0.17515354
223	0x3e7ade58	0.2449888
224	0xbc9993ef	-0.018747298
225	0x3dc7da83	0.09758475
226	0xbe3969e5	-0.18106802
227	0xbd7521f7	-0.059846845
228	0x3e80725d	0.25087252
229	0xbe17e7c8	-0.14834511
230	0x3e2761a2	0.16345838
231	0x3e0bf314	0.13666946
232	0xbdd2d582	-0.1029463
233	0xbddd07d6	-0.1079251
234	0x3e80d990	0.25165987
235	0xbe3cc9d4	-0.18436366
236	0x3ef414b6	0.4767205
237	0xbd15e655	-0.036596615
238	0xbddcb24b	-0.10776194
239	0xbe709b04	-0.23496634
240	0x3eb6fe7c	0.3574103
241	0x3c9172d2	0.017754946
242	0x3ead9b92	0.33907753
243	0x3ddde0a7	0.10833865
244	0xbe4e0be2	-0.2012172
245	0x3d941282	0.072300926
246	0xbdd47ab7	-0.103749685
247	0x3d2927d4	0.04129775
248	0x3dcd3856	0.10020511
249	0xbe8ec9a9	-0.2788823
250	0xbe7d60b6	-0.24743924
251	0xbd3f5d70	-0.04671997
252	0xbe124cb3	-0.14287071
253	0xbe681ba1	-0.2266679
254	0xbcca81dc	-0.024720125
255	0x3ed72414	0.42019713

linear2.weight f4 [3, 256]
0	0xbeeb8dc8	-0.46006608
1	0x3e0bc3b4	0.13648874
2	0xbbbb9f74	-0.0057257954
3	0xbe36f920	-0.17868471
4	0x3d055522	0.032551892
5	0x3e965348	0.29360414
6	0xbea15e04	-0.3151704
7	0xbd5b809f	-0.05358946
8	0xbe572af5	-0.2101248
9	0xbef95b2c	-0.4870237
10	0x3e80c2e6	0.25148696
11	0xbbf4ff58	-0.0074767284
12	0xbec01e1c	-0.37522972
13	0xbce5178a	-0.027965326
14	0x3d04bd76	0.032407247
15	0x3e87fb4e	0.26558918
16	0xbc53cc51	-0.012927131
17	0xbac04a5d	-0.00146706
18	0x3eae7459	0.3407314
19	0xbf08de5d	-0.534643
20	0xbdbdd3db	-0.09268924
21	0xbb868fc2	-0.0041064927
22	0x3e3d7bcc	0.18504256
23	0xbd6f6918	-0.058449835
24	0xbe973b0a	-0.2953723
25	0x3e966607	0.29374716
26	0xbace89e0	-0.0015757643
27	0xbe2198a8	-0.1578089
28	0x3e95fce8	0.29294515
29	0xbd462f1b	-0.048384767
30	0xbd72bb9f	-0.05926096
31	0xbd9eb4da	-0.077493384
32	0xbeff7a75	-0.49898115
33	0xbe6c1a8b	-0.23057
34	0x3e3c1a61	0.18369438
35	0x3e66efa2	0.2255235
36	0x3e5bd3e0	0.21467543
37	0x3ee63c1b	0.44967732
38	0xbdb93819	-0.09043903
39	0xbdeda0b5	-0.11602918
40	0x3e965aa4	0.29366028
41	0x3e73767c	0.23775667
42	0xbf208675	-0.62705165
43	0xbee09d26	-0.43869895
44	0xbe0e2cb2	-0.13884237
45	0xbeb61d29	-0.35569122
46	0x3ddcc412	0.10779585
47	0xbdd00c56	-0.10158603
48	0xbdfecff1	-0.124420054
49	0xbebe7ff5	-0.37206998
50	0x3e9597c6	0.29217356
51	0xbeabe5da	-0.335738
52	0xbecf6d20	-0.40512943
53	0x3ea42d6e	0.3206591
54	0xbeb1c0f6	-0.3471753
55	0xbe6a51ac	-0.22882718
56	0xbe5f3b50	-0.2179997
57	0xbc180d21	-0.009280474
58	0x3ebd9faa	0.37035877
59	0xbe6180b2	-0.2202175
60	0x3c9f0a26	0.019414019
61	0xbe9819a5	-0.29707065
62	0xbeec18a0	-0.46112537
63	0x3b6934a5	0.0035584357
64	0xbe15764a	-0.14595905
65	0x3e07acb5	0.13249476
66	0xbf1e0d3d	-0.6173895
67	0xbe13c01c	-0.14428753
68	0x3e450535	0.19240268
69	0x3eaef3b9	0.3417032
70	0xbd24d5aa	-0.04024283
71	0x3e880e4f	0.26573417
72	0x3e2488c3	0.16067795
73	0xbd8d916b	-0.06912502
74	0x3e9c3c53	0.30514774
75	0xbe6c6fb8	-0.23089492
76	0xbe580795	-0.21096642
77	0xbe8cedcd	-0.27525178
78	0x3d4c0804	0.04981233
79	0x3e612f1c	0.21990627
80	0xbeb9aeeb	-0.36266264
81	0xbe124833	-0.14285354
82	0xbdea6a73	-0.11446085
83	0xb92807b6	-0.00016024601
84	0xbf03dc37	-0.51507896
85	0xbe09d4fc	-0.13460153
86	0x3da1de20	0.07903695
87	0x3cac7bd5	0.021055141
88	0x3ddb6dc7	0.10714298
89	0x3d5bb708	0.05364135
90	0x3ef22af3	0.47298393
91	0xbd117d9c	-0.03552018
92	0x3e45f60a	0.19332138
93	0xbea62a04	-0.3245393
94	0xbe294885	-0.1653157
95	0x3d9bc4af	0.07605874
96	0xbd9f7279	-0.07785506
97	0xbd2629ff	-0.040567394
98	0xbe820556	-0.25394696
99	0x3ecc9f81	0.39965442
100	0xbe2fb9b8	-0.1716069
101	0x3dea0cd6	0.114282295
102	0xbee29e8c	-0.44261587
103	0xbed1ffdb	-0.41015515
104	0xbe66efb0	-0.22552371
105	0xbdc88925	-0.09791783
106	0x3dbf246f	0.09333121
107	0x3e8de417	0.2771308
108	0xbdeb4f7b	-0.11489769
109	0x3d4e53dd	0.050372947
110	0xbe5b1ac8	-0.21396935
111	0x3e27a808	0.16372693
112	0xbd2588e0	-0.040413737
113	0xbe5e6137	-0.21716772
114	0x3e1c031f	0.15235566
115	0x3e7117c1	0.23544218
116	0xbe53f511	-0.20698954
117	0xbe31900a	-0.17340103
118	0x3e1934ff	0.14961623
119	0x3eced765	0.40398708
120	0xbe08940f	-0.1333773
121	0xbeca139b	-0.39468083
122	0xbea807a2	-0.32818323
123	0xbe31bb0e	-0.17356512
124	0x3d434578	0.047673672
125	0xbe8f5c61	-0.28000167
126	0xbc3781f5	-0.011200418
127	0xbe529750	-0.20565534
128	0xbd549795	-0.051902372
129	0xbdfd74b9	-0.12375779
130	0x3e4f373c	0.20235914
131	0xbd439ac8	-0.047755033
132	0x3e2c6496	0.16835245
133	0xbde93369	-0.11386759
134	0x3c5176a9	0.012784638
135	0xbd89fc0f	-0.067375295
136	0x3e903eb3	0.28172836
137	0xbdae258b	-0.085032545
138	0x3e807998	0.2509277
139	0xbee3528b	-0.44398913
140	0x3dc77775	0.097395815
141	0x3e46ad97	0.19402157
142	0xbd23787b	-0.03990982
143	0x3ef253f9	0.4732969
144	0x3ebf6df5	0.37388578
145	0xbe438862	-0.19094995
146	0x3d3218fa	0.04348085
147	0x3e6bc7ee	0.23025486
148	0x3e86e720	0.2634821
149	0x3e9b97ed	0.30389348
150	0x3e6f7728	0.23385298
151	0xbe5bc2b9	-0.21461
152	0xbe63f678	-0.22261989
153	0xbe87d591	-0.26530126
154	0x3d94edf7	0.07271951
155	0x3eb12639	0.34599474
156	0x3e37208c	0.1788351
157	0x3d3764b0	0.044773757
158	0x3ca8d584	0.020609625
159	0xbd94509b	-0.07241937
160	0x3efe998f	0.4972653
161	0x3e97cc46	0.29648036
162	0x3e41ff94	0.18945152
163	0xbdca1173	-0.098666094
164	0xbe007d0b	-0.125477
165	0xbe5ee85e	-0.21768329
166	0xbe154927	-0.14578687
167	0xbe613873	-0.2199419
168	0xbf0c3029	-0.54760987
169	0xbe1c8a7c	-0.15287203
170	0x3b45a6c2	0.003015921
171	0xbea8b99f	-0.32954118
172	0xbe384ba6	-0.17997608
173	0xbe6eb03c	-0.23309416
174	0xbe27c646	-0.16384229
175	0xbe892ba8	-0.2679112
176	0xbd35e61a	-0.044408895
177	0x3e8fb57c	0.2806815
178	0xbf377995	-0.71669894
179	0x3dea85b3	0.11451282
180	0x3ead8e3c	0.3389758
181	0xbe468a47	-0.19388686
182	0x3c872142	0.01649535
183	0x3d1a1b25	0.037623543
184	0x3dce3207	0.10068136
185	0xbe2b5962	-0.16733316
186	0x3ea35919	0.31903914
187	0xbe5d8804	-0.21633917
188	0xbeb47f94	-0.35253584
189	0xbe0ecc2c	-0.13945073
190	0x3e5633de	0.20918223
191	0x3e673b45	0.22581203
192	0x3f022455	0.5083669
193	0xbe0705f0	-0.13185859
194	0x3e44e9a2	0.19229749
195	0xbe8ba784	-0.27276242
196	0xbdbefa91	-0.093251355
197	0x3e67328c	0.22577876
198	0xbf1e210b	-0.6176917
199	0xbecb812b	-0.39746985
200	0x3d4bd6b2	0.049765296
201	0xbe7246f4	-0.23659879
202	0xbbcb3d16	-0.0062023504
203	0xbd1224da	-0.035679676
204	0x3ecd22ad	0.40065518
205	0xbe78758e	-0.24263594
206	0x3e48e6c0	0.19619274
207	0xbe763a3d	-0.24045654
208	0x3ceacf20	0.028663218
209	0xbc0c2b34	-0.008555222
210	0xbed08df3	-0.407333
211	0x3e6336dc	0.22188896
212	0xbcfa6aa7	-0.030568434
213	0xbe193a42	-0.1496363
214	0xbe857602	-0.26066595
215	0xbe237f81	-0.15966608
216	0xbdb7727d	-0.08957384
217	0xbe22af8b	-0.15887277
218	0xbe9a076a	-0.3008378
219	0xbe8a03e5	-0.26956096
220	0x3dfa362a	0.12217362
221	0x3c8d950b	0.017282983
222	0xbe067037	-0.13128744
223	0x3e85a77d	0.26104346
224	0xbe148a58	-0.14505899
225	0x3d8bd17a	0.06827064
226	0xbc962884	-0.018329866
227	0xbed5165a	-0.41618615
228	0x3d440a0d	0.047861148
229	0xbe8d9143	-0.27649888
230	0x3e01be13	0.12670164
231	0x3e1decac	0.15422314
232	0x3ee9424f	0.45558402
233	0xbea21695	-0.31657854
234	0x3ef3dbd9	0.47628668
235	0xbedf15d1	-0.43571332
236	0x3ec4f46a	0.38467723
237	0xbde9ae0e	-0.114101514
238	0xbe0cb20d	-0.13739796
239	0x3c3370b5	0.010952164
240	0x3eada12c	0.33912027
241	0xbcbc2050	-0.022964627
242	0x3e9bb8b6	0.3041436
243	0x3ed8227f	0.42213818
244	0x3cd9bd18	0.026579425
245	0x3d239f35	0.039946754
246	0xbec82b17	-0.39095375
247	0x3eeae1c3	0.45875368
248	0x3e8d2f5b	0.27575192
249	0xbdfafae2	-0.12254883
250	0xbe95461a	-0.29155046
251	0x3d948d02	0.072534576
252	0x3e836d43	0.25669298
253	0xbdacf46e	-0.08445059
254	0xbe21685a	-0.15762463
255	0x3ec156ed	0.37761632

linear2.bias f4 [3]
0	0x3e2de6c1	0.16982557
1	0xbcb319ec	-0.021862946
2	0xbd8aed38	-0.06783527
